…
isplayName":"김신영","userId":"03634135719449192716"},"user_tz":-540},"id":"LB1l1qg1lACT","outputId":"f84e0ee7-a2c8-42c5-cccb-f7ad7436a1a8"},"outputs":[{"name":"stdout","output_type":"stream","text":["Model: \"model_2\"\n","_________________________________________________________________\n"," Layer (type)                Output Shape              Param #   \n","=================================================================\n"," input_2 (InputLayer)        [(None, 168, 87, 1)]      0         \n","                                                                 \n"," conv2d_5 (Conv2D)           (None, 168, 87, 512)      5120      \n","                                                                 \n"," max_pooling2d_5 (MaxPooling  (None, 84, 44, 512)      0         \n"," 2D)                                                             \n","                                                                 \n"," flatten_1 (Flatten)         (None, 1892352)           0         \n","                                                                 \n"," dense_4 (Dense)             (None, 512)               968884736 \n","                                                                 \n"," dense_5 (Dense)             (None, 256)               131328    \n","                                                                 \n"," dense_6 (Dense)             (None, 128)               32896     \n","                                                                 \n"," dense_7 (Dense)             (None, 10)                1290      \n","                                                                 \n","=================================================================\n","Total params: 969,055,370\n","Trainable params: 969,055,370\n","Non-trainable params: 0\n","_________________________________________________________________\n"]}],"source":["model = model_build()\n","model.summary()"]},{"cell_type":"code","executio
…
isplayName":"김신영","userId":"03634135719449192716"},"user_tz":-540},"id":"4zCtm_Iub62-","outputId":"683e6af9-b737-42b3-d0f5-b53a5933ea09"},"outputs":[{"name":"stdout","output_type":"stream","text":["Model: \"model_4\"\n","_________________________________________________________________\n"," Layer (type)                Output Shape              Param #   \n","=================================================================\n"," input_3 (InputLayer)        [(None, 20, 173, 1)]      0         \n","                                                                 \n"," conv2d_8 (Conv2D)           (None, 20, 173, 512)      5120      \n","                                                                 \n"," max_pooling2d_8 (MaxPooling  (None, 10, 87, 512)      0         \n"," 2D)                                                             \n","                                                                 \n"," flatten_2 (Flatten)         (None, 445440)            0         \n","                                                                 \n"," dense_8 (Dense)             (None, 512)               228065792 \n","                                                                 \n"," dense_9 (Dense)             (None, 256)               131328    \n","                                                                 \n"," dense_10 (Dense)            (None, 128)               32896     \n","                                                                 \n"," dense_11 (Dense)            (None, 10)                1290      \n","                                                                 \n","=================================================================\n","Total params: 228,236,426\n","Trainable params: 228,236,426\n","Non-trainable params: 0\n","_________________________________________________________________\n"]}],"source":["model = model_build()\n","model.summary()"]},{"cell_type":"code","executio
…
